models/real_test_model_0.pth (torch, 174048 bytes, 4 tensors)

conv1.weight f4 [80, 100, 3]
0	0x3db40f2a	0.08791955
1	0x3d8370fc	0.064180344
2	0xbcd26bf8	-0.02568625
3	0x3d5c8e6c	0.05384676
4	0xbc0b9820	-0.008520156
5	0x3c247a35	0.010038902
6	0xbcd480d7	-0.025940342
7	0x3d22a75d	0.03971039
8	0x3d72cd6f	0.059277948
9	0xbd16851b	-0.036748033
10	0x3d3fc810	0.046821654
11	0x3c638fd4	0.013889272
12	0x3d34f490	0.044178545
13	0x3b9f4454	0.0048604403
14	0x3cde20fe	0.027115341
15	0xbc04f25b	-0.008114423
16	0x3d33218e	0.043733172
17	0x3c0f6fab	0.008754651
18	0xbcdccc91	-0.026953014
19	0x3c711db8	0.014716558
20	0xbcd9e997	-0.026600642
21	0xbbdddd30	-0.0067707524
22	0xbcc0194c	-0.023449562
23	0x3d1ce030	0.03829974
24	0xbd3aac20	-0.045574307
25	0xbcda0aba	-0.026616443
26	0xbc858db0	-0.016302913
27	0xbd0e30c6	-0.034714483
28	0x3bb28f50	0.005449213
29	0xbd6991a9	-0.057023678
30	0x3dbba785	0.09162811
31	0xbda853c6	-0.082191035
32	0x3d813a0c	0.063099
33	0x3c35b137	0.011089615
34	0xbcbd37a2	-0.023097817
35	0x3cc8139d	0.024423415
36	0x3b08f02f	0.0020895114
37	0x3d4c6770	0.049903333
38	0x3d327fd9	0.043578956
39	0xbd59b897	-0.053154554
40	0xbb019990	-0.0019775368
41	0xbcffb8e7	-0.031216098
42	0x3dbbbf21	0.09167314
43	0x3e1da501	0.15394975
44	0x3d6acf7c	0.05732678
45	0xbc564895	-0.013078828
46	0x3d2054fe	0.039143555
47	0x3b84edd9	0.004056674
48	0x3d37b910	0.044854224
49	0xbd05f2e9	-0.03270236
50	0xbd54b582	-0.05193091
51	0xbb4a4b74	-0.0030867727
52	0xbd32a01e	-0.04360973
53	0x3d50e980	0.051003933
54	0x3d415f4c	0.047210023
55	0x3d01857f	0.031621452
56	0x3cfac875	0.030613163
57	0xbb10234e	-0.00219937
58	0x3d3d3143	0.046189558
59	0xbd1a145d	-0.037617076
60	0x3b89346c	0.0041871574
61	0xbd1dd8ee	-0.03853696
62	0x3cb3e19b	0.021958163
63	0xbcbcf845	-0.023067603
64	0x3d2c5209	0.042070422
65	0x3ba810f9	0.0051289764
66	0x3db2841d	0.08716605
67	0xbd132956	-0.035928093
68	0xbd1e9061	-0.03871191
69	0xbd7a0d26	-0.061047696
70	0x3dc689a3	0.09694221
71	0x3c62eb17	0.013849995
72	0x3d495f4d	0.04916315
73	0xbd888557	-0.066660576
74	0xbdb1f6fe	-0.08689688
75	0xbd6e122e	-0.058122806
76	0xbd37ebe8	-0.044902712
77	0xbc0a21fb	-0.008430953
78	0x3cd1c5f0	0.02560708
79	0x3d9f2cae	0.07772194
80	0xbd1f8a7f	-0.03895044
81	0xbd535c36	-0.05160161
82	0x3db79179	0.089632936
83	0xbcae60d7	-0.021286411
84	0x3dc40059	0.09570379
85	0xbcc80db6	-0.0244206
86	0x3d66ce78	0.056349248
87	0xbd64ab03	-0.055827152
88	0xbb55e83b	-0.003263964
89	0x3dc752cb	0.097325884
90	0xbb854e46	-0.004068169
91	0xbc4852b8	-0.012226753
92	0x3d67cdcd	0.05659275
93	0x3d361055	0.04444917
94	0xbd159f7a	-0.03652904
95	0xbc89b381	-0.016809227
96	0x3d8086bc	0.062756985
97	0xbc00d3b7	-0.007862977
98	0xbc98cf04	-0.0186534
99	0xbd5839b8	-0.05278942
100	0xbd0dc523	-0.034611832
101	0x3c9b3507	0.018946184
102	0xbcb81566	-0.022471141
103	0xbd2ccac6	-0.042185567
104	0x3c0afaa8	0.008482613
105	0xbd24a92c	-0.040200397
106	0xbd44fedb	-0.04809461
107	0xbd02f82d	-0.03197496
108	0xbd8f587c	-0.06999299
109	0xbd122851	-0.03568298
110	0x3d5d7dd1	0.054075066
111	0x3bec58b1	0.0072127213
112	0x3c3ec8ef	0.011644586
113	0xbd61cce2	-0.055127032
114	0xbce5f8e8	-0.02807279
115	0xbc921ab8	-0.017835006
116	0x3cf7907c	0.030220263
117	0xbd369e34	-0.044584468
118	0xbd325184	-0.04353477
119	0xbd3f7bf2	-0.046749063
120	0x3cc5ae27	0.024130894
121	0xbd5f1a5d	-0.0544685
122	0xbc96a1d0	-0.018387705
123	0xbd19dc7a	-0.03756378
124	0xbd2ed3e9	-0.042682562
125	0xbd0b9e47	-0.034086492
126	0xbca8c121	-0.020599904
127	0xbd3a03b5	-0.04541369
128	0x3d514f0b	0.051100772
129	0xbd04d9a5	-0.032434124
130	0x3cf03426	0.029321741
131	0x3c4c7de1	0.012481184
132	0xbd491dd7	-0.049100723
133	0x3d47909e	0.048721902
134	0xbc88c9f1	-0.016697856
135	0xbcaf19b0	-0.021374553
136	0xbd44ec76	-0.04807707
137	0xbd6b1a0d	-0.05739789
138	0x3c875208	0.016518608
139	0xbc4ea1fc	-0.012611862
140	0x3cb822e8	0.022477582
141	0xbd5c7960	-0.05382669
142	0x3cd25846	0.025676858
143	0xbd6d6aed	-0.0579633
144	0xbca0eea2	-0.019645039
145	0x3cca76e5	0.024714896
146	0x3c9d49ee	0.019200291
147	0x3d2681ed	0.04065125
148	0x3d661364	0.056170836
149	0xbd3545c1	-0.044255976
150	0x3cfd6b9e	0.030935105
151	0xbd1bc266	-0.03802719
152	0x3aaa8f70	0.0013012718
153	0xbd516d2f	-0.051129516
154	0x3d6015b1	0.054708187
155	0xbd160405	-0.036624927
156	0x3cfe40a4	0.031036682
157	0x3ca088c8	0.019596472
158	0x3c936bcc	0.017995737
159	0xbd273beb	-0.040828627
160	0x3da2f209	0.07956321
161	0xbc5b749b	-0.0133945
162	0xba89b474	-0.001050605
163	0xbd301a63	-0.042993914
164	0x3d5152cd	0.051104356
165	0xbc42de2a	-0.011893788
166	0xbcb34b49	-0.021886485
167	0x3d758c7f	0.05994844
168	0x3c91d1fe	0.017800327
169	0xbcc46c99	-0.023977565
170	0xbd08b2c5	-0.033373613
171	0xbbff8d57	-0.0077988314
172	0x3d186735	0.0372078
173	0xbc9ab714	-0.018886127
174	0xbd51a459	-0.051182125
175	0xbc9cbb7a	-0.019132365
176	0xbd2bc0b3	-0.04193182
177	0x3ca8acc0	0.020590186
178	0x3d370c0e	0.04468923
179	0xbd5ea263	-0.054354083
180	0x3ce743f9	0.028230654
181	0x3d0f242a	0.034946598
182	0x3c2de3dd	0.010613409
183	0xbca86f42	-0.020560864
184	0x3cf6dc4c	0.030134343
185	0x3cf88cac	0.030340515
186	0x3cae7fc4	0.021301158
187	0xbc21542b	-0.009846727
188	0xbc809e6c	-0.015700541
189	0xbbec39a6	-0.0072090207
190	0xbd176959	-0.0369657
191	0xbc465d18	-0.012107156
192	0x3d17294e	0.036904626
193	0x3d4b3bac	0.049617454
194	0xbbbb4a10	-0.005715616
195	0x3c95a637	0.018267734
196	0x3d144592	0.03619916
197	0x3c316177	0.01082646
198	0x3c636990	0.0138801485
199	0x3c848a70	0.016179293
200	0xbd56c978	-0.05243823
201	0xbcae8ac4	-0.021306403
202	0x3d472626	0.048620366
203	0x3cb83ef8	0.022490963
204	0x3d58aeae	0.052900963
205	0xbd0e2219	-0.034700487
206	0xbc3e8ba5	-0.011629974
207	0xbd5da256	-0.054109894
208	0xbccc6579	-0.02495073
209	0x3d0fc851	0.035103146
210	0x3cf55dcb	0.02995195
211	0x3d0d7644	0.034536615
212	0xbd44e953	-0.048074078
213	0xbd0c4921	-0.03424943
214	0xbc161935	-0.009161283
215	0x3d584998	0.05280456
216	0x3bd66cb5	0.0065437206
217	0xbc74f7e8	-0.014951684
218	0x3cc079c6	0.023495566
219	0xbcd2de52	-0.025740776
220	0xbd804047	-0.0626226
221	0x3d3ac312	0.04559619
222	0xbccd19d6	-0.025036734
223	0xbcb94a39	-0.0226184
224	0xbd5887e6	-0.052863978
225	0x3d268708	0.04065612
226	0x3d4ed85a	0.050499298
227	0x3c6c3d88	0.014418967
228	0xbd27cead	-0.040968586
229	0xbd6b4ca2	-0.05744613
230	0xbd4010f6	-0.046891175
231	0x3d5dd7ae	0.054160766
232	0x3cdef69e	0.027217206
233	0x3d4ef274	0.05052419
234	0x3c3c8d04	0.01150823
235	0x3ca06d3d	0.019583339
236	0xba4970c3	-0.00076843443
237	0xbd2e3e21	-0.04253972
238	0xbd4a9c9d	-0.049465764
239	0xbd5d3199	-0.054002378
240	0x3bc2498d	0.005929178
241	0xbcd77eb6	-0.026305538
242	0xbc38213b	-0.0112383915
243	0xbd1905bc	-0.037358984
244	0xbc1874c9	-0.0093051875
245	0xbd53aed3	-0.051680397
246	0xbda1af9f	-0.07894825
247	0xbc3c67b1	-0.011499331
248	0xbd3fadcb	-0.0467966
249	0x3d11fdb0	0.035642326
250	0xbc97bb3e	-0.018521901
251	0xbd2d79d7	-0.042352524
252	0xbb9786cc	-0.0046242233
253	0xbcb7d4d4	-0.022440352
254	0xbc9adce8	-0.018904164
255	0xbd8fc6b4	-0.070203215

conv1.bias f4 [80]
0	0x3e1228bf	0.14273356
1	0x3dc78355	0.097418465
2	0x3e19316b	0.14960258
3	0x3daf5b6e	0.08562361
4	0x3ccb3b21	0.024808468
5	0x3ddfcb58	0.109274566
6	0x3d737409	0.05943683
7	0x3e1032e9	0.1408192
8	0x3def5bd7	0.11687439
9	0x3dc564bd	0.09638355
10	0x3dd1e2a2	0.10248305
11	0x3dfe590f	0.1241933
12	0x3e354ce7	0.17705117
13	0x3df5056a	0.11963923
14	0x3e23888e	0.1597006
15	0x3e121bc0	0.14268398
16	0x3e311770	0.17294097
17	0x3e0c6226	0.13709316
18	0x3dea83b2	0.114509
19	0x3dd1b2e0	0.10239196
20	0x3e26e428	0.16297972
21	0x3dbe0231	0.09277762
22	0x3dfd6706	0.12373166
23	0x3daa30c0	0.083100796
24	0x3e133e1f	0.14379166
25	0x3de1f535	0.11033098
26	0x3e34e9e3	0.17667346
27	0x3e139920	0.14413881
28	0x3e221fe4	0.15832478
29	0x3e1444b3	0.14479332
30	0x3e1b12b7	0.15143858
31	0x3dee320b	0.11630639
32	0x3e006af9	0.12540807
33	0x3defa3a8	0.11701137
34	0x3dcbc634	0.099499136
35	0x3e20eca4	0.15715271
36	0x3e02567a	0.127283
37	0x3dbf6db7	0.09347098
38	0x3d58c7c2	0.05292488
39	0x3da74a37	0.08168452
40	0x3db50b49	0.08840043
41	0x3e112212	0.14173153
42	0x3e191da8	0.14952719
43	0x3e48e0c3	0.1961699
44	0x3e3f55ee	0.18685123
45	0x3dcd7a08	0.10033041
46	0x3dbc153f	0.0918374
47	0x3e12c6cf	0.14333652
48	0x3dd5ceca	0.104398325
49	0x3debe3dc	0.1151807
50	0x3e08cf46	0.13360319
51	0x3e535d7b	0.20641129
52	0x3e0a9612	0.1353381
53	0x3e16747d	0.14692874
54	0x3e0f5b1b	0.13999598
55	0x3e01fff8	0.126953
56	0x3e23ad11	0.15983988
57	0x3d87884c	0.066177934
58	0x3d5ddf22	0.054167874
59	0x3ddc1611	0.10746396
60	0x3e091950	0.13388562
61	0x3d219fe4	0.039459124
62	0x3e6e5e1d	0.23278089
63	0x3e229314	0.15876418
64	0x3dfd534e	0.12369405
65	0x3dbf66d1	0.093457825
66	0x3db56dee	0.08858858
67	0x3e26e1a8	0.16297019
68	0x3e1255a6	0.14290485
69	0x3dd53d6a	0.104121044
70	0x3d3e1695	0.046408255
71	0x3e012bd6	0.12614378
72	0x3e44d460	0.1922164
73	0x3d8d9963	0.06914022
74	0x3df12e77	0.117764406
75	0x3e0a0c58	0.13481271
76	0x3e1a4dbb	0.15068714
77	0x3d945de2	0.07244469
78	0x3e4369ec	0.19083375
79	0x3dc8695a	0.09785719

fc.weight f4 [2, 9440]
0	0xbd21ccb5	-0.039501864
1	0xbc480960	-0.012209266
2	0x3bb5c0a4	0.005546646
3	0x39a7afa1	0.00031983576
4	0xbc288c91	-0.01028742
5	0xbc287462	-0.010281654
6	0xbd8ec21c	-0.06970617
7	0xbd54636f	-0.05185264
8	0x3ccad8fe	0.024761673
9	0x3bc5791b	0.0060264
10	0x3cc7ca11	0.024388345
11	0xbc2bc8ef	-0.010484918
12	0x3ce2584d	0.027629996
13	0xbb1a2161	-0.002351843
14	0x3c820c84	0.015875109
15	0x3cd05bb7	0.025434358
16	0x3d49d533	0.04927559
17	0xbc2a9a8d	-0.010412824
18	0x3d506d87	0.050885703
19	0xbbef89ec	-0.0073101427
20	0x3be69eeb	0.0070379875
21	0x3b4679b1	0.0030284936
22	0x398d42cc	0.00026943383
23	0xbcf998f9	-0.03046845
24	0x3cb1b9db	0.021695068
25	0xbd33c483	-0.04388858
26	0xbd05d21e	-0.032671086
27	0xbc5ae464	-0.013360117
28	0xbc9d21b6	-0.019181114
29	0xbd3f2462	-0.046665557
30	0x3d971026	0.07376127
31	0x3c6cbc09	0.014449128
32	0x3bd291ce	0.0064260727
33	0x3d32c735	0.04364701
34	0x3d343b85	0.044002075
35	0x3cd36cd6	0.025808733
36	0xbc3dcaf5	-0.011584033
37	0xbd6c047f	-0.057621475
38	0x3c795671	0.015218363
39	0x3b632c42	0.003466383
40	0x3a375d58	0.00069948053
41	0x3c381ee6	0.0112378355
42	0xbd2ccb30	-0.042185962
43	0xba2d6b76	-0.0006615439
44	0xbd49f01c	-0.04930125
45	0xbc034692	-0.008012431
46	0xbd553147	-0.052048948
47	0xbcca6548	-0.024706498
48	0xbd61c869	-0.055122767
49	0xbd5b8ae0	-0.05359924
50	0x3c3a6b4a	0.011378119
51	0xbd00cd45	-0.03144576
52	0x3c9eea64	0.019398876
53	0x39347a42	0.00017211682
54	0xbd8e831b	-0.069586
55	0x3a97914b	0.0011563686
56	0x3c9d3ac2	0.019193057
57	0xb99a793c	-0.00029463496
58	0xbc73a218	-0.014870189
59	0x3c86153d	0.01636755
60	0x3b971f19	0.0046118614
61	0xbd27b2f9	-0.040942166
62	0x3c0cea94	0.00860085
63	0x3cef7c2b	0.029234013
64	0xbd501c8b	-0.05080847
65	0xbc947576	-0.018122416
66	0xbddb35e7	-0.107036404
67	0xbd369c83	-0.044582855
68	0xbd05f5fb	-0.03270529
69	0xbd3fb7ef	-0.046806272
70	0xbd7690e2	-0.060196765
71	0x3c3ce973	0.011530268
72	0x3c7ce059	0.015434348
73	0xbd2ba645	-0.041906614
74	0xbd2f8e32	-0.042860217
75	0x3d182900	0.037148476
76	0xbd011802	-0.031517036
77	0xbcc15872	-0.023601744
78	0xbc3cae3f	-0.011516153
79	0xbd0f5c98	-0.035000414
80	0x3cbaa3f4	0.022783257
81	0x3cf3a418	0.029741332
82	0xbaa94a52	-0.0012915826
83	0x3bd5eb01	0.006528259
84	0xbab008b7	-0.0013430332
85	0x3cb8ad3e	0.022543546
86	0xbb7d5029	-0.0038652516
87	0xbca336cd	-0.019923592
88	0xbc114de5	-0.008868669
89	0x3bb0f9dd	0.00540088
90	0x3d092e95	0.03349169
91	0xbc9542cf	-0.018220333
92	0x3bfade7f	0.007655918
93	0x3cb9d58c	0.022684835
94	0x3d37c4d0	0.04486543
95	0xbc1e0e81	-0.009647013
96	0xbcd0fd95	-0.025511542
97	0x3c808f18	0.015693232
98	0xbd07a7bd	-0.033118952
99	0xbb8c8f07	-0.004289511
100	0x3d177082	0.03697253
101	0xbc0f6cdd	-0.008753982
102	0x3cc8c167	0.024506284
103	0x3cb6ade8	0.022299722
104	0xbc76684c	-0.015039515
105	0x3c3a1857	0.011358342
106	0xbca3bd5f	-0.01998776
107	0xbae8a80a	-0.0017750275
108	0x3d064470	0.03278011
109	0x3c59a541	0.0132840285
110	0x3d0bd1b0	0.03413552
111	0xbd17f828	-0.037101895
112	0x3ba63b91	0.005073019
113	0x3c5e443c	0.013566073
114	0x3c5273ad	0.012844962
115	0xbc4174d6	-0.011807641
116	0x39caa22a	0.00038649264
117	0xbd135667	-0.03597107
118	0x3bbf2758	0.0058335476
119	0x3c26c302	0.010178329
120	0xbc7a2435	-0.0152674215
121	0x3c8f1a2c	0.017468534
122	0x3c4309d3	0.011904198
123	0x3c63b0a1	0.013897092
124	0x3c471fc2	0.012153568
125	0x3d1dfb4f	0.038569745
126	0xbce162c0	-0.027512908
127	0xbbd9d018	-0.006647121
128	0xbc20e759	-0.009820783
129	0x391043de	0.00013758193
130	0x3b5394d4	0.0032284753
131	0xbc2bcd1d	-0.010485915
132	0x3bd8d835	0.0066175708
133	0x3c7258b9	0.014791661
134	0xbd620821	-0.055183534
135	0xbcacef30	-0.021110147
136	0xbc80e489	-0.015733974
137	0x3c112a90	0.008860245
138	0x3c41754a	0.011807749
139	0xbbd1e646	-0.0064056246
140	0xba895681	-0.0010478051
141	0x3c07c408	0.008286484
142	0xbb84d12f	-0.004053257
143	0x3d1ada2e	0.03780573
144	0x3d212a65	0.03934707
145	0x3c0159da	0.007894957
146	0x3ba62ccc	0.005071258
147	0xbb4d4c5d	-0.0031326034
148	0x3c2b0daf	0.010440274
149	0xbc7fe0f7	-0.015617601
150	0x3c8485d4	0.016177095
151	0x3c9e75b4	0.019343235
152	0x3cb5ab84	0.022176512
153	0x3bfa5d1b	0.0076404936
154	0x398cad24	0.0002683188
155	0x3c284110	0.010269418
156	0xbc28c875	-0.010301699
157	0x3d0580d6	0.03259357
158	0x3cf32f87	0.029685749
159	0x3ceb087c	0.02869057
160	0x3c11a79b	0.008890058
161	0x3c2e19c3	0.010626259
162	0x3cb9531f	0.022622643
163	0x3d09a918	0.033608526
164	0xbce1a23b	-0.027543178
165	0x3d74366f	0.059622224
166	0x3a3dc5e7	0.00072392676
167	0x3b13a564	0.0022529
168	0x3c66216d	0.014046055
169	0x3b680c9b	0.0035407904
170	0x3c01ab94	0.007914443
171	0x3d23f39c	0.040027246
172	0x3a3f89e3	0.00073066185
173	0x3c031f3a	0.00800305
174	0x3b74763a	0.0037301914
175	0x3af0ec90	0.0018381048
176	0x3931c141	0.00016952028
177	0x3d135de1	0.0359782
178	0x3cbd0b91	0.023076804
179	0x3c96978d	0.018382812
180	0x3afa40db	0.0019092815
181	0xbcb9a801	-0.022663118
182	0x3bef4ba1	0.007302717
183	0x3d22b72e	0.039725475
184	0x3ce7dc85	0.028303394
185	0x3d5d5a61	0.05404127
186	0x3cd6011c	0.026123576
187	0x3c5696aa	0.013097445
188	0x3d05728c	0.032579944
189	0x3c271496	0.010197779
190	0x3a1b8691	0.0005932833
191	0x3cdd1d0c	0.02699139
192	0x3bb06e26	0.0053842245
193	0x3c9316ad	0.017955149
194	0x3c9f3954	0.019436516
195	0x3d1e3452	0.038624115
196	0xba2a7b08	-0.00065033184
197	0xbcb24529	-0.021761494
198	0xbcce2b8b	-0.025167247
199	0xbb4c2e95	-0.0031155695
200	0x3c907487	0.01763369
201	0x3afdef37	0.001937366
202	0xbb8381df	-0.0040132846
203	0x3bf6e25d	0.007534309
204	0x3bd1508f	0.006387777
205	0x3c2750b0	0.0102121085
206	0xbb50f98c	-0.0031887023
207	0x3b063c17	0.0020482594
208	0xbc3c8f1e	-0.011508731
209	0x3c1efd78	0.009703986
210	0x39715983	0.00023016897
211	0x3aab2b55	0.0013059179
212	0x3b8dedda	0.0043313326
213	0x3bfa7b0a	0.007644062
214	0x3c9ed8d8	0.019390509
215	0x3c7b3753	0.015333015
216	0x3ca2ebf0	0.019887894
217	0x3c690982	0.014223458
218	0xb9c8ad73	-0.00038276202
219	0xbbc0e148	-0.0058862306
220	0x3b695f25	0.003560969
221	0xbbcfdd48	-0.0063435175
222	0x3a028229	0.0004978502
223	0x3cb285a7	0.021792246
224	0x3c3734b0	0.011181995
225	0x3d15963e	0.036520235
226	0xbc5d8b49	-0.013521978
227	0xbc32ea1d	-0.010920075
228	0x3c3777af	0.011197968
229	0xbb97861f	-0.004624143
230	0xb924ae92	-0.00015705291
231	0x3bf2639c	0.0073971283
232	0x3b698998	0.003563499
233	0x3c3a799f	0.011381536
234	0x3cdbfa76	0.026852828
235	0x3b39995e	0.0028320174
236	0x3c04e51e	0.008111266
237	0x3d0c5f84	0.03427078
238	0xba635a87	-0.00086728524
239	0x3ca1920c	0.01972296
240	0x3a884bc0	0.0010398552
241	0x3c6237cf	0.013807251
242	0x3ce9e422	0.028551165
243	0xbacbb219	-0.0015540748
244	0xbd0391ed	-0.032121588
245	0xbca4449a	-0.020052243
246	0xbd339523	-0.0438434
247	0xbce08213	-0.027405774
248	0xbd0ef24d	-0.034899045
249	0x3c791115	0.015201827
250	0x3c86e5d1	0.016467007
251	0xbd5902a6	-0.05298104
252	0xbd41c212	-0.04730422
253	0xbb8e3d71	-0.0043408205
254	0xbc5dc761	-0.013536305
255	0xbc9da560	-0.019243896

fc.bias f4 [2]
0	0xba02ef05	-0.0004994723
1	0x3c1c671b	0.009546067
